…
Executando no no: r2n14.npad.internal
Arquivos de saida serao salvos em 'resultados/'
Arquivos de erro serao salvos em 'erros/'
===============================================================
Iniciando execucao do app.py...


|  * * * * * * * * * * * * * * * * * *


| Dados carregados - data/processed/data_10_segments.json


|  * * * * * * * * * * * * * * * * * *


Model: "sequential"
_________________________________________________________________
 Layer (type)                Output Shape              Param #   
=================================================================
 conv2d (Conv2D)             (None, 128, 11, 32)       320       
                                                                 
 max_pooling2d (MaxPooling2D  (None, 64, 6, 32)        0         
 )                                                               
                                                                 
 batch_normalization (BatchN  (None, 64, 6, 32)        128       
 ormalization)                                                   
                                                                 
 conv2d_1 (Conv2D)           (None, 62, 4, 64)         18496     
                                                                 
 max_pooling2d_1 (MaxPooling  (None, 31, 2, 64)        0         
 2D)                                                             
                                                                 
 batch_normalization_1 (Batc  (None, 31, 2, 64)        256       
 hNormalization)                                                 
                                                                 
 dropout (Dropout)           (None, 31, 2, 64)         0         
                                                                 
 conv2d_2 (Conv2D)           (None, 30, 1, 128)        32896     
                                                                 
 max_pooling2d_2 (MaxPooling  (None, 15, 1, 128)       0         
 2D)                                                             
                                                                 
 batch_normalization_2 (Batc  (None, 15, 1, 128)       512       
 hNormalization)                                                 
                                                                 
 dropout_1 (Dropout)         (None, 15, 1, 128)        0         
                                                                 
 flatten (Flatten)           (None, 1920)              0         
                                                                 
 dense (Dense)               (None, 128)               245888    
                                                                 
 dropout_2 (Dropout)         (None, 128)               0         
                                                                 
 dense_1 (Dense)             (None, 10)                1290      
                                                                 
=================================================================
Total params: 299,786
Trainable params: 299,338
Non-trainable params: 448
_________________________________________________________________
Epoch 1/30
  1/188 [..............................] - ETA: 3:18 - loss: 4.0181 - accuracy: 0.1250
…
