…
Executando no no: r2n14.npad.internal
Arquivos de saida serao salvos em 'resultados/'
Arquivos de erro serao salvos em 'erros/'
===============================================================
Iniciando execucao do app.py...


|  * * * * * * * * * * * * * * * * * *


| Dados carregados - data/processed/data_10_segments.json


|  * * * * * * * * * * * * * * * * * *


Model: "sequential"
_________________________________________________________________
 Layer (type)                Output Shape              Param #   
=================================================================
 conv2d (Conv2D)             (None, 128, 11, 32)       320       
                                                                 
 max_pooling2d (MaxPooling2D  (None, 64, 6, 32)        0         
 )                                                               
                                                                 
 batch_normalization (BatchN  (None, 64, 6, 32)        128       
 ormalization)                                                   
                                                                 
 conv2d_1 (Conv2D)           (None, 62, 4, 32)         9248      
                                                                 
 max_pooling2d_1 (MaxPooling  (None, 31, 2, 32)        0         
 2D)                                                             
                                                                 
 batch_normalization_1 (Batc  (None, 31, 2, 32)        128       
 hNormalization)                                                 
                                                                 
 conv2d_2 (Conv2D)           (None, 30, 1, 32)         4128      
                                                                 
 max_pooling2d_2 (MaxPooling  (None, 15, 1, 32)        0         
 2D)                                                             
                                                                 
 batch_normalization_2 (Batc  (None, 15, 1, 32)        128       
 hNormalization)                                                 
                                                                 
 flatten (Flatten)           (None, 480)               0         
                                                                 
 dense (Dense)               (None, 64)                30784     
                                                                 
 dropout (Dropout)           (None, 64)                0         
                                                                 
 dense_1 (Dense)             (None, 10)                650       
                                                                 
=================================================================
Total params: 45,514
Trainable params: 45,322
Non-trainable params: 192
_________________________________________________________________
Epoch 1/30
  1/188 [..............................] - ETA: 4:58 - loss: 3.5895 - accuracy: 0.0312
…
