…
| Arquivo de seeds criado com sucesso.
| Seeds em uso: [893]


==================================================
| INICIANDO RODADA PARA N_MFCC = 13
==================================================


|  * * * * * * * * * * * * * * * * * *


| Dados carregados - data/processed/data_mfcc_13.json


|  * * * * * * * * * * * * * * * * * *



| ---> Execução 1/1 (Seed: 893)
Model: "sequential"
_________________________________________________________________
 Layer (type)                Output Shape              Param #   
=================================================================
 conv2d (Conv2D)             (None, 128, 11, 32)       320       
                                                                 
 max_pooling2d (MaxPooling2D  (None, 64, 6, 32)        0         
 )                                                               
                                                                 
 batch_normalization (BatchN  (None, 64, 6, 32)        128       
 ormalization)                                                   
                                                                 
 conv2d_1 (Conv2D)           (None, 62, 4, 64)         18496     
                                                                 
 max_pooling2d_1 (MaxPooling  (None, 31, 2, 64)        0         
 2D)                                                             
                                                                 
 batch_normalization_1 (Batc  (None, 31, 2, 64)        256       
 hNormalization)                                                 
                                                                 
 dropout (Dropout)           (None, 31, 2, 64)         0         
                                                                 
 conv2d_2 (Conv2D)           (None, 30, 1, 128)        32896     
                                                                 
 max_pooling2d_2 (MaxPooling  (None, 15, 1, 128)       0         
 2D)                                                             
                                                                 
 batch_normalization_2 (Batc  (None, 15, 1, 128)       512       
 hNormalization)                                                 
                                                                 
 dropout_1 (Dropout)         (None, 15, 1, 128)        0         
                                                                 
 flatten (Flatten)           (None, 1920)              0         
                                                                 
 dense (Dense)               (None, 128)               245888    
                                                                 
 dropout_2 (Dropout)         (None, 128)               0         
                                                                 
 dense_1 (Dense)             (None, 10)                1290      
                                                                 
=================================================================
Total params: 299,786
Trainable params: 299,338
Non-trainable params: 448
_________________________________________________________________
Epoch 1/30
  1/188 [..............................] - ETA: 4:01 - loss: 3.8791 - accuracy: 0.1250
…
| Resultado Run 1: Acurácia de Teste = 0.6671


==================================================
| INICIANDO RODADA PARA N_MFCC = 20
==================================================


|  * * * * * * * * * * * * * * * * * *


| Dados carregados - data/processed/data_mfcc_20.json


|  * * * * * * * * * * * * * * * * * *



| ---> Execução 1/1 (Seed: 893)
Model: "sequential"
_________________________________________________________________
 Layer (type)                Output Shape              Param #   
=================================================================
 conv2d (Conv2D)             (None, 128, 18, 32)       320       
                                                                 
 max_pooling2d (MaxPooling2D  (None, 64, 9, 32)        0         
 )                                                               
                                                                 
 batch_normalization (BatchN  (None, 64, 9, 32)        128       
 ormalization)                                                   
                                                                 
 conv2d_1 (Conv2D)           (None, 62, 7, 64)         18496     
                                                                 
 max_pooling2d_1 (MaxPooling  (None, 31, 4, 64)        0         
 2D)                                                             
                                                                 
 batch_normalization_1 (Batc  (None, 31, 4, 64)        256       
 hNormalization)                                                 
                                                                 
 dropout (Dropout)           (None, 31, 4, 64)         0         
                                                                 
 conv2d_2 (Conv2D)           (None, 30, 3, 128)        32896     
                                                                 
 max_pooling2d_2 (MaxPooling  (None, 15, 2, 128)       0         
 2D)                                                             
                                                                 
 batch_normalization_2 (Batc  (None, 15, 2, 128)       512       
 hNormalization)                                                 
                                                                 
 dropout_1 (Dropout)         (None, 15, 2, 128)        0         
                                                                 
 flatten (Flatten)           (None, 3840)              0         
                                                                 
 dense (Dense)               (None, 128)               491648    
                                                                 
 dropout_2 (Dropout)         (None, 128)               0         
                                                                 
 dense_1 (Dense)             (None, 10)                1290      
                                                                 
=================================================================
Total params: 545,546
Trainable params: 545,098
Non-trainable params: 448
_________________________________________________________________
Epoch 1/30
  1/188 [..............................] - ETA: 2:58 - loss: 4.3225 - accuracy: 0.1562
…
| Resultado Run 1: Acurácia de Teste = 0.6439


==================================================
| INICIANDO RODADA PARA N_MFCC = 30
==================================================


|  * * * * * * * * * * * * * * * * * *


| Dados carregados - data/processed/data_mfcc_30.json


|  * * * * * * * * * * * * * * * * * *



| ---> Execução 1/1 (Seed: 893)
Model: "sequential"
_________________________________________________________________
 Layer (type)                Output Shape              Param #   
=================================================================
 conv2d (Conv2D)             (None, 128, 28, 32)       320       
                                                                 
 max_pooling2d (MaxPooling2D  (None, 64, 14, 32)       0         
 )                                                               
                                                                 
 batch_normalization (BatchN  (None, 64, 14, 32)       128       
 ormalization)                                                   
                                                                 
 conv2d_1 (Conv2D)           (None, 62, 12, 64)        18496     
                                                                 
 max_pooling2d_1 (MaxPooling  (None, 31, 6, 64)        0         
 2D)                                                             
                                                                 
 batch_normalization_1 (Batc  (None, 31, 6, 64)        256       
 hNormalization)                                                 
                                                                 
 dropout (Dropout)           (None, 31, 6, 64)         0         
                                                                 
 conv2d_2 (Conv2D)           (None, 30, 5, 128)        32896     
                                                                 
 max_pooling2d_2 (MaxPooling  (None, 15, 3, 128)       0         
 2D)                                                             
                                                                 
 batch_normalization_2 (Batc  (None, 15, 3, 128)       512       
 hNormalization)                                                 
                                                                 
 dropout_1 (Dropout)         (None, 15, 3, 128)        0         
                                                                 
 flatten (Flatten)           (None, 5760)              0         
                                                                 
 dense (Dense)               (None, 128)               737408    
                                                                 
 dropout_2 (Dropout)         (None, 128)               0         
                                                                 
 dense_1 (Dense)             (None, 10)                1290      
                                                                 
=================================================================
Total params: 791,306
Trainable params: 790,858
Non-trainable params: 448
_________________________________________________________________
Epoch 1/30
  1/188 [..............................] - ETA: 3:01 - loss: 4.9093 - accuracy: 0.1250
…
| Resultado Run 1: Acurácia de Teste = 0.6615


==================================================
| INICIANDO RODADA PARA N_MFCC = 40
==================================================


|  * * * * * * * * * * * * * * * * * *


| Dados carregados - data/processed/data_mfcc_40.json


|  * * * * * * * * * * * * * * * * * *



| ---> Execução 1/1 (Seed: 893)
Model: "sequential"
_________________________________________________________________
 Layer (type)                Output Shape              Param #   
=================================================================
 conv2d (Conv2D)             (None, 128, 38, 32)       320       
                                                                 
 max_pooling2d (MaxPooling2D  (None, 64, 19, 32)       0         
 )                                                               
                                                                 
 batch_normalization (BatchN  (None, 64, 19, 32)       128       
 ormalization)                                                   
                                                                 
 conv2d_1 (Conv2D)           (None, 62, 17, 64)        18496     
                                                                 
 max_pooling2d_1 (MaxPooling  (None, 31, 9, 64)        0         
 2D)                                                             
                                                                 
 batch_normalization_1 (Batc  (None, 31, 9, 64)        256       
 hNormalization)                                                 
                                                                 
 dropout (Dropout)           (None, 31, 9, 64)         0         
                                                                 
 conv2d_2 (Conv2D)           (None, 30, 8, 128)        32896     
                                                                 
 max_pooling2d_2 (MaxPooling  (None, 15, 4, 128)       0         
 2D)                                                             
                                                                 
 batch_normalization_2 (Batc  (None, 15, 4, 128)       512       
 hNormalization)                                                 
                                                                 
 dropout_1 (Dropout)         (None, 15, 4, 128)        0         
                                                                 
 flatten (Flatten)           (None, 7680)              0         
                                                                 
 dense (Dense)               (None, 128)               983168    
                                                                 
 dropout_2 (Dropout)         (None, 128)               0         
                                                                 
 dense_1 (Dense)             (None, 10)                1290      
                                                                 
=================================================================
Total params: 1,037,066
Trainable params: 1,036,618
Non-trainable params: 448
_________________________________________________________________
Epoch 1/30
  1/188 [..............................] - ETA: 3:06 - loss: 4.3732 - accuracy: 0.0625
…
| Resultado Run 1: Acurácia de Teste = 0.6703


==================================================
| INICIANDO RODADA PARA N_MFCC = 50
==================================================


|  * * * * * * * * * * * * * * * * * *


| Dados carregados - data/processed/data_mfcc_50.json


|  * * * * * * * * * * * * * * * * * *



| ---> Execução 1/1 (Seed: 893)
Model: "sequential"
_________________________________________________________________
 Layer (type)                Output Shape              Param #   
=================================================================
 conv2d (Conv2D)             (None, 128, 48, 32)       320       
                                                                 
 max_pooling2d (MaxPooling2D  (None, 64, 24, 32)       0         
 )                                                               
                                                                 
 batch_normalization (BatchN  (None, 64, 24, 32)       128       
 ormalization)                                                   
                                                                 
 conv2d_1 (Conv2D)           (None, 62, 22, 64)        18496     
                                                                 
 max_pooling2d_1 (MaxPooling  (None, 31, 11, 64)       0         
 2D)                                                             
                                                                 
 batch_normalization_1 (Batc  (None, 31, 11, 64)       256       
 hNormalization)                                                 
                                                                 
 dropout (Dropout)           (None, 31, 11, 64)        0         
                                                                 
 conv2d_2 (Conv2D)           (None, 30, 10, 128)       32896     
                                                                 
 max_pooling2d_2 (MaxPooling  (None, 15, 5, 128)       0         
 2D)                                                             
                                                                 
 batch_normalization_2 (Batc  (None, 15, 5, 128)       512       
 hNormalization)                                                 
                                                                 
 dropout_1 (Dropout)         (None, 15, 5, 128)        0         
                                                                 
 flatten (Flatten)           (None, 9600)              0         
                                                                 
 dense (Dense)               (None, 128)               1228928   
                                                                 
 dropout_2 (Dropout)         (None, 128)               0         
                                                                 
 dense_1 (Dense)             (None, 10)                1290      
                                                                 
=================================================================
Total params: 1,282,826
Trainable params: 1,282,378
Non-trainable params: 448
_________________________________________________________________
Epoch 1/30
  1/188 [..............................] - ETA: 3:11 - loss: 4.1390 - accuracy: 0.0312
…
