…
| Seeds carregadas: [893, 7739, 6546, 4389, 4330, 8586, 860, 6973, 2015, 942, 5265, 9756, 7357, 7611, 7175, 7860, 5132, 1282, 8397, 4504, 5004, 3708, 1826, 9267, 7815, 6439, 4024, 8227, 5454, 4434]


==================================================
| INICIANDO RODADA PARA N_MFCC = 5
==================================================


|  * * * * * * * * * * * * * * * * * *


| Dados carregados - data/processed/data_mfcc_5.json


|  * * * * * * * * * * * * * * * * * *



| > Execução 1/30 (Seed: 893)
Model: "sequential"
_________________________________________________________________
 Layer (type)                Output Shape              Param #   
=================================================================
 conv2d (Conv2D)             (None, 130, 5, 32)        320       
                                                                 
 max_pooling2d (MaxPooling2D  (None, 65, 3, 32)        0         
 )                                                               
                                                                 
 batch_normalization (BatchN  (None, 65, 3, 32)        128       
 ormalization)                                                   
                                                                 
 conv2d_1 (Conv2D)           (None, 65, 3, 64)         18496     
                                                                 
 max_pooling2d_1 (MaxPooling  (None, 33, 2, 64)        0         
 2D)                                                             
                                                                 
 batch_normalization_1 (Batc  (None, 33, 2, 64)        256       
 hNormalization)                                                 
                                                                 
 dropout (Dropout)           (None, 33, 2, 64)         0         
                                                                 
 conv2d_2 (Conv2D)           (None, 33, 2, 128)        32896     
                                                                 
 max_pooling2d_2 (MaxPooling  (None, 17, 1, 128)       0         
 2D)                                                             
                                                                 
 batch_normalization_2 (Batc  (None, 17, 1, 128)       512       
 hNormalization)                                                 
                                                                 
 dropout_1 (Dropout)         (None, 17, 1, 128)        0         
                                                                 
 flatten (Flatten)           (None, 2176)              0         
                                                                 
 dense (Dense)               (None, 128)               278656    
                                                                 
 dropout_2 (Dropout)         (None, 128)               0         
                                                                 
 dense_1 (Dense)             (None, 10)                1290      
                                                                 
=================================================================
Total params: 332,554
Trainable params: 332,106
Non-trainable params: 448
_________________________________________________________________
Epoch 1/30
  1/188 [..............................] - ETA: 4:14 - loss: 3.9266 - accuracy: 0.1250
…
